demo/model_test.pt (torch, 118239 bytes, 6 tensors)

conv1.0.weight f4 [16, 1, 5, 5]
000000 36 e6 88 be d2 3d db be 83 1e 4c 3f 71 f0 22 3d
       -0.26738137 -0.42820603 0.7973406 0.039780084
000010 13 50 f5 be 22 4e 26 bf 78 0a 13 3e 66 c8 ee 3e
       -0.47912654 -0.6496297 0.14359462 0.46637267
000020 16 2b ca be d9 d4 55 be c7 22 30 be 7c 4a ec 3e
       -0.39485997 -0.20881976 -0.17200767 0.46150577
000030 16 81 64 3e a0 17 d4 bd 52 96 09 3e 81 fe 83 be
       0.22314867 -0.103560686 0.13436249 -0.2578011
000040 1e a8 85 bd d6 32 8e be 9e 77 25 3e 84 76 af bc
       -0.065262064 -0.2777316 0.16158912 -0.021418817
000050 b6 67 60 3e 3b cb 41 bd ac 3a 69 3e 14 0e b1 bd
       0.21914563 -0.047312956 0.22776288 -0.08645263
000060 7e f5 2e bd 1c be e9 3e 2c 48 36 3f 6b e0 13 3e
       -0.04271459 0.45652854 0.71203876 0.14441077
000070 42 ef c9 3e d0 d2 ca 3e 46 b1 76 be 5e eb 16 3e
       0.39440352 0.39613962 -0.24091062 0.14738223
000080 fa 73 08 bd 67 a8 bb be 96 58 b9 3d 05 0f 52 3c
       -0.03331373 -0.36651918 0.090500996 0.012820964
000090 22 cf 00 bf c0 3f 21 bf 5a be 29 bf c3 ab 91 3e
       -0.5031606 -0.629879 -0.6630608 0.28451356
0000a0 b7 54 a6 bd b0 aa 2c bd 0e 1a 32 3e 47 21 45 3c
       -0.08121627 -0.042154968 0.17392752 0.01203186
0000b0 29 e9 c8 3e 3d db 69 bd 73 7c e2 3e e6 3d e3 3e
       0.39240387 -0.057093848 0.44235572 0.44383162
0000c0 d6 6f d4 3e 10 6b 16 3c a8 ad 0b 3f 66 46 0f be
       0.41491574 0.009180799 0.54561853 -0.13991699
0000d0 bc 29 02 3f c0 18 2d 3e a9 1b 2d 3e 51 b7 3f 3e
       0.5084493 0.16903973 0.16905083 0.18722273
0000e0 a0 39 40 bd 22 23 29 3d b5 45 98 ba 37 c8 f2 be
       -0.046929955 0.04129327 -0.0011617454 -0.47418377
0000f0 90 7b 48 bd ac ca 98 be 70 25 07 3e ae 62 25 3f
       -0.048945963 -0.29842126 0.13197875 0.646037
000100 68 8c fd 3d 9b 7b 23 3e b9 6a 4e be 08 ae bb be
       0.12380296 0.1596512 -0.20157899 -0.36656213
000110 4d 11 70 be 38 ca 1d 3f b0 60 6e bc 1e d5 52 3d
       -0.234441 0.61636686 -0.014549419 0.051472776
000120 15 b5 e5 bd 5b f7 0c bf f0 14 00 be 17 e6 05 3e
       -0.11216179 -0.55064934 -0.12507987 0.13076054
000130 92 73 8b 3e c0 da 71 be 38 83 5f bd f2 43 ba be
       0.2723661 -0.23618603 -0.0545685 -0.36379963
000140 fd 77 84 3e d8 14 c6 be a7 f9 9d be 90 e0 f7 bd
       0.25872794 -0.38687778 -0.30854532 -0.12103379
000150 16 23 2f 3e 38 f1 b9 3e 5f f1 fc 3e aa 6e 39 3f
       0.17103228 0.36316848 0.49402902 0.72434485
000160 7e 8a 36 bc 24 cb 78 3e 02 0d 11 bd df ff b2 bd
       -0.011141418 0.24296242 -0.035412796 -0.0874021
000170 a4 be 03 3f ee 86 d3 3d 5d 88 ce 3d 0a c9 23 be
       0.5146277 0.1032847 0.10084603 -0.15994659
000180 52 b3 08 bf 36 ae 28 be c9 db db bd 2f ca 2a 3e
       -0.5339862 -0.16472706 -0.1073528 0.1667869
000190 dd 2e 80 3e bf 93 89 3d fa 0b 51 3d 65 f5 b1 ba
       0.25035754 0.067176335 0.051036812 -0.0013577162
0001a0 30 fd bf 3d f3 40 be 3d da 96 41 bd f7 46 e3 3e
       0.093744636 0.09289732 -0.047263004 0.4439008
0001b0 91 8f 1b bf 0e b8 f6 be 12 f6 97 3d 59 cf d8 bd
       -0.6076594 -0.48187298 0.07419981 -0.105864234
0001c0 3b bf 4b 3f fd cb b2 3d 95 9c b3 be 6d 84 25 bd
       0.7958867 0.08730314 -0.350804 -0.040409494
0001d0 81 e0 18 3d 6d 91 8f 3e 6e 98 3c 3f 25 8b 76 be
       0.03732348 0.2804064 0.7367009 -0.24076517
0001e0 1c 6d 3b be 18 03 63 be a1 34 79 bd 6b 97 d0 3e
       -0.1830334 -0.22169149 -0.060841206 0.40740523
0001f0 ef d7 dd 3e 0e b7 86 3d 62 1c a3 3e 26 2d 79 3d
       0.43328807 0.06577884 0.31857592 0.060834073
000200 64 44 34 be 21 78 47 bd 9f c3 94 bd 66 5e 12 3f
       -0.17604214 -0.04869855 -0.07263874 0.5717529
000210 a3 96 9e 3d e7 4a 31 bf 30 38 bd 3e ce 6a 35 3e
       0.077435754 -0.69254917 0.3695693 0.17716524
000220 fe 70 78 3e a4 7c dc be 13 b0 a0 be c9 7f 5f 3e
       0.24261853 -0.43063843 -0.31384334 0.2182609
000230 e9 32 89 3d 98 c8 80 3e 5e 0f 81 be 23 66 a6 be
       0.066991635 0.2515304 -0.25207037 -0.324998
000240 43 11 b2 3e 80 5d 25 be 9d 2f da 3e 13 3e 0a 3f
       0.34778795 -0.16148949 0.4261445 0.5400097
000250 da f2 f0 3e af 5b b5 3e 6a a9 9f be bc f7 5c 3e
       0.4706028 0.35421512 -0.3118394 0.21578878
000260 f8 54 10 3e 0a 74 ff 3d 7c 0a 8f 3e 0c 72 9c 3d
       0.14094913 0.124733046 0.27937686 0.0763894
000270 4d 42 b3 3e 41 2d 9c be 08 2b a8 be 11 ab 00 3d
       0.3501152 -0.30503276 -0.3284533 0.03141314
000280 5d 30 9e 3e 2f 61 9a be 7f 2e bd be 50 04 9e bd
       0.30896273 -0.3015227 -0.36949536 -0.07715666
000290 e7 42 ce 3d 23 9f a9 3d d2 68 8b be 36 b3 a7 3a
       0.10071354 0.08282306 -0.2722841 0.0012794498
0002a0 c6 78 9b 3e 15 5c 67 3e a3 68 3d 3e cd 38 68 be
       0.3036558 0.2259372 0.18496947 -0.22677918
0002b0 ad 4a 37 bd bf 96 13 be cd a5 0f 3e da c0 5a be
       -0.04474895 -0.14412974 0.14028092 -0.2136263
0002c0 04 0c c2 3d 46 4a 0a be 38 63 f5 3e ae 1f db 3e
       0.09474948 -0.13504896 0.4792726 0.42797607
0002d0 68 41 20 bd 97 b3 0c 3e 07 0e ba bc c9 bd e0 3e
       -0.039124876 0.13740383 -0.022711767 0.43894795
0002e0 79 8f 75 be 9c 2e 90 3e bd ea 42 3e 20 df a2 3e
       -0.23980512 0.2816056 0.19034858 0.31810856
0002f0 82 98 81 3e ee 2b 37 be 06 a4 c2 bd 68 da ac bc
       0.25311667 -0.17887852 -0.09503941 -0.021100238
000300 30 b8 d8 3e df 52 d2 3d a4 cf 19 3e 97 46 18 3d
       0.42328024 0.10269713 0.15020615 0.037176695
000310 73 62 a0 3e 73 5c a2 3d ce a3 12 3f 6f 15 87 3d
       0.3132511 0.079277895 0.57281196 0.06595885
000320 87 ad 2b bd 4a b8 71 be 39 31 a9 3e ae e1 ce 3e
       -0.041913535 -0.23605457 0.33045366 0.40406555
000330 69 2e 1f 3f fa 0e d5 bd 5a 42 91 bd 35 6a 22 3e
       0.6218019 -0.10403247 -0.07092734 0.15860827
000340 15 77 51 bd 43 b7 23 3e e4 39 6d bd f6 4a cb bc
       -0.051138956 0.15987878 -0.057916537 -0.024816018
000350 0e 27 b9 3e 4a 4d 53 3e 63 5b c8 bd d4 00 c2 bc
       0.3616261 0.20634952 -0.09783056 -0.023682036
000360 64 48 e6 3e b5 f0 4a 3e ba 1d 35 be 84 e4 3d be
       0.44977105 0.19818385 -0.17687121 -0.18544203
000370 1e 59 d5 3e 1b d1 89 bb 88 34 14 bf c2 27 1e bf
       0.41669554 -0.0042058355 -0.57892656 -0.61779416
000380 03 14 82 be f2 c2 42 bd 97 30 80 3d 0a 3a 3a bf
       -0.25405893 -0.047549196 0.06259268 -0.7274481
000390 55 ff 4e be eb d3 60 3e 22 f8 94 3d 3d 8d 02 bf
       -0.20214589 0.2195584 0.0727389 -0.5099676
0003a0 4a 6c 32 be 02 0e 2b 3f 0e ab 69 3e a2 67 21 3e
       -0.17424121 0.6681825 0.22819158 0.15762189
0003b0 6f 0d 97 bd 45 6c 74 3f 54 f4 c3 3d ec f4 a2 be
       -0.07375609 0.95477706 0.09568086 -0.31827486
0003c0 73 f4 5f 3e 1c cd 46 3d 48 9e 35 be 01 2a a2 be
       0.21870594 0.04853545 -0.17736161 -0.3167267
0003d0 3b b1 0a be ea 3b 53 3d 09 bb c2 bd ca eb d4 bd
       -0.1354417 0.05157081 -0.095083304 -0.10396536
0003e0 6b 8d 89 3e 5e f3 55 be bc 95 9f 3e e7 1c a8 3e
       0.26865706 -0.20893618 0.31168926 0.3283455
0003f0 bf a5 cb be 99 17 0e bd 81 02 34 3e dd 8c 47 3d
       -0.39774892 -0.034690473 0.1757908 0.048718322

conv1.0.bias f4 [16]
000000 d5 4c bf bf 1f d7 07 c0 57 d4 f3 bf c4 22 83 bf
       -1.4945322 -2.122505 -1.9049176 -1.0244985
000010 d2 07 cb bf 48 d2 04 c0 94 af 08 c0 1a 9d c3 bf
       -1.5861762 -2.0753345 -2.1357164 -1.5282319
000020 1d 98 c5 bf 81 d4 b5 bf 4f c3 da bf 41 68 ee bf
       -1.5437046 -1.4205476 -1.7090853 -1.8625566
000030 3a 6d f8 bf ed f7 0f c0 63 55 e5 bf 58 34 dd bf
       -1.9408333 -2.2495072 -1.7916683 -1.7281599

conv2.0.weight f4 [32, 16, 5, 5]
000000 75 a6 00 bf 31 44 79 be fe 26 91 be 50 94 e3 be
       -0.50253993 -0.24342419 -0.2835006 -0.4444909
000010 69 3d a2 be 61 7d de be ba 85 70 be e6 3b cb be
       -0.31687477 -0.43455032 -0.23488513 -0.39694136
000020 7f d9 ca be d9 9a 34 bf f0 08 d6 be 46 eb 07 bf
       -0.3961906 -0.7054878 -0.41803694 -0.53093374
000030 99 35 bb be 61 03 f3 be 52 a3 ec be fa 64 42 bf
       -0.3656433 -0.47463515 -0.46218354 -0.7593533
000040 fc fe 6f 3d ee 7c 6b be 6e b6 1e bd 0a 2d 9a be
       0.05859278 -0.22996876 -0.038748197 -0.30112487
000050 db a3 84 be 56 0b 11 be 2c 1f c5 be 28 e6 0d 3f
       -0.25906262 -0.1416448 -0.38500345 0.55429316
000060 a7 eb 4d bf c4 5b 1d be 3d f8 29 be 5a 2e f0 bd
       -0.804377 -0.15367037 -0.16598602 -0.11727591
000070 90 f8 1d bd fd 1d e5 be d3 1a 74 bc f4 e0 6e bd
       -0.038567126 -0.44749442 -0.0148989735 -0.05832
000080 78 6e b0 bd dd 6c ee bd 8b 63 0e 3d cc 8c ac bd
       -0.0861482 -0.11641858 0.0347629 -0.084252924
000090 76 45 74 bd 89 ac 3c bb 3d d5 be bd d7 9b 1e be
       -0.059636556 -0.0028789362 -0.09318016 -0.15489136
0000a0 c9 95 03 3d 21 68 c7 3a 63 e4 f9 bd 06 f4 cf bd
       0.032125268 0.0015213528 -0.122017644 -0.10153966
0000b0 65 bc 5c be 03 cd b0 be df 5f eb be c1 6f 2f bf
       -0.21556242 -0.34531412 -0.4597158 -0.685299
0000c0 02 c4 2f bf bd 82 f9 bd cf e4 14 bd b0 4b 98 bc
       -0.6865846 -0.121831395 -0.03635102 -0.018590778
0000d0 1e 76 20 be f5 27 3c bd c8 2c a2 be 52 d9 58 bc
       -0.15670058 -0.045936543 -0.3167479 -0.013235407
0000e0 5a 1b 28 bd 62 cf 82 be 64 fd ac bd 75 6e f5 3b
       -0.04104171 -0.25548846 -0.08446768 0.007489974
0000f0 a1 65 99 be ef f6 84 bd 4c 39 94 be a4 a0 4d be
       -0.2996035 -0.06492411 -0.28949964 -0.20080811
000100 57 24 8a be 17 0c 6a be bb bc a4 be 70 b3 97 be
       -0.2698085 -0.22856174 -0.3217524 -0.29629087
000110 71 36 31 be 32 78 73 be 4e 0d 0a be ef 88 4a bf
       -0.17305924 -0.2377632 -0.13481638 -0.79115194
000120 62 fa d4 3d 21 81 ba be 28 0b a6 be 9e 82 88 be
       0.10399319 -0.36426643 -0.32430387 -0.26662153
000130 57 a1 c0 be 5b fa af be fd c0 c7 be 42 82 0f bf
       -0.37623093 -0.34370694 -0.39014426 -0.5605813
000140 d4 7a 73 be 06 9f d5 be d5 a2 b6 be 01 48 f0 bd
       -0.23777324 -0.41722888 -0.35671106 -0.11732484
000150 72 12 d5 be cc 30 e8 be a2 4f d0 be f9 b7 33 3c
       -0.41615635 -0.4534973 -0.40685755 0.0109691555
000160 f1 07 90 3d 82 03 07 bf 9b 99 2e bf 27 bb 4f be
       0.07032765 -0.5273973 -0.68203133 -0.20286237
000170 97 d9 d2 be f4 5c fb be 96 61 52 bf 29 63 55 bf
       -0.41181633 -0.49094355 -0.82180154 -0.8335443
000180 6b 68 3f bf b6 f7 93 be e3 de 70 be 9f 9a 78 be
       -0.74768704 -0.28899926 -0.23522525 -0.24277733
000190 09 4a 81 be 78 c7 32 3d f1 ee 39 3d b9 2a 9c be
       -0.25251797 0.04364726 0.045393888 -0.30501345
0001a0 b5 0c dd be 5f ee 4a be e9 b6 a6 be 28 16 dc bd
       -0.43173757 -0.19817494 -0.32561424 -0.107464135
0001b0 4d 82 a0 be 9b 9c f1 be 28 1d c4 be 25 bd 36 bf
       -0.31349412 -0.47189793 -0.38303494 -0.7138236
0001c0 4e 92 46 be 2e ef 18 bf bf fa d2 bd 2c 5e a7 bd
       -0.19391748 -0.5973996 -0.10301732 -0.08172259
0001d0 18 f8 a1 be d5 a9 28 be 1f 23 8e bd 12 55 b4 be
       -0.31634593 -0.16471036 -0.069402926 -0.35221153
0001e0 b9 12 37 bf 3d 65 6b 3e 3d 7f 52 3f d4 31 ec 3e
       -0.71512944 0.22987838 0.822254 0.46131766
0001f0 54 a7 94 3e dc 16 bd be 71 40 bb be 95 55 87 be
       0.2903391 -0.36931503 -0.36572602 -0.2643248
000200 ef d6 c2 be 7c 1e 68 be 34 8c b2 be d1 04 52 3d
       -0.38054606 -0.22667879 -0.34872591 0.051274125
000210 66 9d 49 be fe a8 76 be 54 8a cc be 0f 73 f7 bd
       -0.19688949 -0.24087903 -0.39949286 -0.120824926
000220 04 59 27 be 03 6d dc be f7 4d f9 be 0c f3 aa be
       -0.1634255 -0.4305192 -0.48692295 -0.33388555
000230 fc eb 19 be ee dd d4 bd cb 43 46 bd 39 2d 8c be
       -0.15031427 -0.10393892 -0.048404496 -0.27378252
000240 76 1d f5 be 8c f9 b7 be ff 1d 6e bf a4 a7 42 bf
       -0.4787404 -0.35932577 -0.9301452 -0.7603705
000250 27 cc 9c bf d4 87 43 bf ef 04 83 be 90 60 8e be
       -1.2249802 -0.7637913 -0.25589702 -0.27808046
000260 fe 48 86 be 45 b7 2f bd ce 47 3f be 90 55 b0 bd
       -0.26227564 -0.04289939 -0.18679735 -0.0861007
000270 39 34 b2 bd d8 12 ec bd 57 af 08 be 30 ab b8 bd
       -0.08701367 -0.11527032 -0.13348137 -0.090170264
000280 7f 08 c6 bd de 82 13 be 65 c1 3a be 42 ff 0e bd
       -0.09669589 -0.1440539 -0.18237837 -0.0349114
000290 3a 65 48 be 53 9b e5 bc 0d e3 84 bd 64 3f 9d bd
       -0.19569865 -0.028028166 -0.06488619 -0.076781064
0002a0 90 7c 14 be e7 88 a5 be e5 f2 07 3e 98 ff 9a bd
       -0.14500642 -0.3233101 0.1327625 -0.07568282
0002b0 f7 79 30 3e ff 23 2f be b4 dd 35 be e8 14 be be
       0.17234026 -0.17103575 -0.17760354 -0.37125325
0002c0 c6 3f a3 be 4b d5 b5 be 68 57 e6 be 34 ac 1a bf
       -0.31884593 -0.35514292 -0.4498856 -0.6041901
0002d0 bd 0a 89 be fb 6f 83 be 83 20 02 bf bb 86 9c be
       -0.26766005 -0.25671372 -0.5083086 -0.3057154
0002e0 aa de ba be 92 de 71 be 0e 1f a7 be 7a 3a 03 bf
       -0.36498004 -0.2362006 -0.3264088 -0.51261103
0002f0 51 5e a5 be 92 ad 86 be 4e 04 5b be 76 b7 07 be
       -0.3229852 -0.263043 -0.21388361 -0.13253579
000300 e5 52 57 be 7e 2c 76 be 4c 49 83 be 74 c0 8a bd
       -0.21027716 -0.2404041 -0.2564186 -0.06774989
000310 cd 0f ac be 85 49 eb 3c 5d 1f 29 be 36 f6 05 bf
       -0.33605805 0.02872158 -0.1651587 -0.52328813
000320 ad d2 de be 88 a3 6d be f9 77 8b be ec 57 e1 3b
       -0.43520108 -0.23206913 -0.2723997 0.006876936
000330 0a 62 f6 bc 6f 76 a6 be 37 ab 98 be 0b 13 d3 be
       -0.030076046 -0.32512233 -0.29818127 -0.41225466
000340 c6 e9 c0 be b5 1e 1f bf 04 b2 5f be 7f d7 0d be
       -0.37678355 -0.6215623 -0.21845251 -0.13851736
000350 98 67 ef be 63 1b b2 be 2e 36 e4 be 54 18 d7 be
       -0.46758723 -0.3478652 -0.44572586 -0.42010748
000360 59 9c ba be d9 13 cc be 41 d2 ff be e0 d8 09 bf
       -0.3644741 -0.39858893 -0.49965099 -0.5384655
000370 d2 d6 93 be 8f 88 b9 be ae da 4a bf 20 86 4e be
       -0.28874832 -0.36236998 -0.7923993 -0.20168352
000380 3d 80 17 bf 60 b8 a8 be 02 20 9f be 1e 48 41 bf
       -0.5918005 -0.32953167 -0.31079108 -0.7550067
000390 b8 5a 34 3e 9a 39 b5 3d 2f bf 1e be c3 e0 8c bd
       0.17612731 0.08848877 -0.15502618 -0.068788074
0003a0 a4 b8 c2 be 48 23 92 be c5 ad b5 be 17 6d 82 be
       -0.38031495 -0.28542542 -0.35484138 -0.25473854
0003b0 63 c6 44 bf 89 80 27 bf 84 3d a7 be 0b 00 eb be
       -0.76865214 -0.65430504 -0.3266412 -0.4589847
0003c0 b3 4f 29 bf 85 76 36 be a5 f0 dd be e4 5e 5c be
       -0.66137236 -0.17818649 -0.4334766 -0.21520573
0003d0 80 fa 17 bf cc 07 6e bf a8 9e ae bf 9f ae 2a bf
       -0.5936661 -0.9298065 -1.3642168 -0.666727
0003e0 87 59 a6 be b0 fc 2f bf 03 01 75 bd 8a cf 90 bd
       -0.3249018 -0.68744946 -0.059815418 -0.07070835
0003f0 4d 03 db 3b 88 98 5f bd eb bf 90 bd ec 68 0c bd
       0.006683743 -0.054588825 -0.070678554 -0.03427975

conv2.0.bias f4 [32]
000000 f6 00 c6 bd b5 3e 0e bf aa 3e 0b bf 89 d5 1b bc
       -0.09668152 -0.55564433 -0.5439249 -0.00951136
000010 60 d7 90 be 15 10 14 be c9 3d 9a bd 21 28 91 bd
       -0.28289318 -0.1445926 -0.07531316 -0.07087732
000020 ee 8e c8 bc 08 62 46 be 47 90 73 bd 23 ed 5c bd
       -0.024482217 -0.19373333 -0.059463765 -0.05393709
000030 71 6f 08 bd 70 36 87 bc 49 21 a1 be 61 72 82 bf
       -0.033309404 -0.01650545 -0.31470707 -1.0191156
000040 2a c9 53 bd 73 c3 be bd 70 3a ad be 7d 79 8d be
       -0.051705517 -0.09314623 -0.33833647 -0.2763175
000050 65 06 ff bd 0e 7c de be 9a 2e 7b bc 6d 92 c8 bd
       -0.124523915 -0.4345402 -0.015330935 -0.097935535
000060 1b fd 2a bf 8b 9f 88 be 31 53 32 be 4a 64 9b bd
       -0.6679246 -0.26684222 -0.17414548 -0.07587488
000070 b0 e3 a6 bd f9 c4 36 bf d7 1f ed bd b1 c1 95 bd
       -0.08148897 -0.71394306 -0.115783386 -0.07312334

out.weight f4 [10, 1568]
000000 7d 05 40 bd e2 7a 94 3d d7 12 06 bf 3c 0b db 3e
       -0.046880234 0.072500005 -0.523725 0.4278201
000010 cb 4e bf 3e f6 16 bc 3d e5 5a 92 3d 4e b9 a5 be
       0.37364802 0.09184067 0.07146243 -0.3236794
000020 12 c9 43 be ca b0 bb be 8a 04 96 be 97 91 d7 bd
       -0.19119671 -0.36658317 -0.29300338 -0.10525816
000030 a1 3c f1 bd 57 35 bc 3d 33 96 36 be fb 5a d4 bd
       -0.11779142 0.09189861 -0.17830734 -0.10368916
000040 3d 21 a9 be 43 cd 82 be 74 10 70 bc 67 c4 e5 3e
       -0.3303317 -0.25547227 -0.01465236 0.44876406
000050 c3 35 75 3e 62 1c 06 bf 3f 1c c9 be 7c 7a 1e be
       0.2394629 -0.5238706 -0.39279363 -0.15476412
000060 8d 5b 07 3d 4a f1 5b be 0a e2 60 3e 4e e4 8b bd
       0.033046294 -0.21478763 0.21961227 -0.06830655
000070 67 06 81 bd 51 aa e2 be 77 05 06 bf ef ef 17 bd
       -0.06300049 -0.44270566 -0.5235209 -0.037094053
000080 30 0a 82 be bb a7 53 3d d6 0c 19 bb 8b 2c 1b bc
       -0.25398397 0.051673632 -0.0023353598 -0.009471069
000090 44 30 7b be 83 5d 25 be e1 7c c3 3c 7a 1e f8 3c
       -0.2453013 -0.16148953 0.023863258 0.03028797
0000a0 58 b7 34 3d 78 12 2a 3d 65 db 1b bd d3 4f 3d be
       0.044120163 0.04152152 -0.038051028 -0.18487482
0000b0 d1 5b 09 be 2e bd 62 3d dc 1e e4 3c dd 2b 8a bc
       -0.13413931 0.055356197 0.027846746 -0.016866619
0000c0 7a 1a 94 3c 7f 47 a1 3d b9 b3 1c bf 1d 11 9e bc
       0.018079031 0.07874965 -0.61211735 -0.01929527
0000d0 74 ec 3c 3d 0a 32 be be ec de a9 bc 63 75 0f 3d
       0.046123937 -0.37147552 -0.02073618 0.035024058
0000e0 77 bf d7 3e b7 56 9f be 99 c2 d2 3e 6b ca da bc
       0.42138264 -0.31120846 0.4116409 -0.026707849
0000f0 c2 3e a4 3e 42 cc 50 3e cf 60 26 3b c6 d0 82 3e
       0.3207913 0.20390418 0.0025387292 0.25549906
000100 5a f7 bf bd 11 b9 d6 3e 2f 7f a3 be 56 b9 87 bf
       -0.093733504 0.4193807 -0.3193297 -1.0603435
000110 4a 37 8c bf d9 7f 0f 3f 47 c4 1c 3e 59 4f 4e 3e
       -1.0954373 0.56054455 0.15309249 0.20147456
000120 a1 8d 16 be 7b e7 dc 3d 1d 97 a0 3f 12 fb 3e bf
       -0.14702465 0.10786339 1.2546116 -0.7460185
000130 b4 63 18 3e 94 0c da 3b d7 42 b0 bf 55 d8 a1 bf
       0.14881784 0.0066543315 -1.3770398 -1.2644144
000140 18 cb 2f 3f 9c 76 29 3f 73 0f f5 be 8c b3 58 bf
       0.6866927 0.6619661 -0.4786335 -0.84648967
000150 8d 64 f8 be 42 6f 79 bf 72 98 66 bf 38 ee bf 3e
       -0.48514214 -0.9743539 -0.90076363 0.37486434
000160 4b 40 9c 3e 2e b9 09 bf 3f ff 88 3d 4c 6b 92 3e
       0.30517802 -0.53798187 0.06689309 0.28597486
000170 d2 f6 4d 3f e8 af e7 3e e6 c8 87 bf a3 cc a1 bf
       0.8045474 0.45251393 -1.0608184 -1.2640575
000180 3e 28 f3 be 9a 4e 30 3d 69 fc 8a be 23 76 ee bf
       -0.4749164 0.04304371 -0.271457 -1.8629802
000190 86 50 ce be 61 93 81 3c d8 42 0c bf dd b8 ec 3a
       -0.4029581 0.015817346 -0.54789495 0.0018060465
0001a0 d8 b3 b5 3d 69 83 a0 3e 8f 13 a4 be cc 6c cd be
       0.08872193 0.31350258 -0.32046172 -0.40122068
0001b0 e7 f8 cd bc 25 22 6a 3d 2a d9 9e be b1 f2 b3 be
       -0.0251431 0.05716147 -0.31025058 -0.35146096
0001c0 91 f1 50 3f 6a 17 73 bf 64 83 b6 3d 98 63 e6 3e
       0.816186 -0.949576 0.089117795 0.4499786
0001d0 37 2a fa 3e 8e 53 6f be 4c 27 05 be 3d ef 05 be
       0.48860332 -0.23371717 -0.13003272 -0.13079543
0001e0 74 31 cb be ef fb 79 bf a0 b5 dc be 3f 82 a3 be
       -0.39686167 -0.97650045 -0.4310732 -0.31935307
0001f0 6c 35 93 be 1e 7d 84 bf d2 10 74 be 64 87 47 3e
       -0.28751695 -1.0350683 -0.23834541 0.19485241
000200 81 d0 b5 3d 82 ee a1 be c7 08 85 be 4c ab 77 3e
       0.088776596 -0.3162728 -0.2598326 0.24186438
000210 d1 72 0b bf 82 eb 28 3e 16 27 b1 3e 6e 91 d7 3e
       -0.5447207 0.16496089 0.34600133 0.42103142
000220 55 be d9 be e9 1e 54 3c 76 2e 0a be a0 c5 19 bf
       -0.42528024 0.012946823 -0.13494286 -0.60067177
000230 5c b0 f3 bd 1a 33 ae 3e 70 ca 0a bf 75 2b 2e bf
       -0.11898872 0.34023362 -0.54215145 -0.6803506
000240 8e 1a 0f be 17 4d 9c 3d 35 b0 3a 3f 62 c8 14 3c
       -0.13974974 0.07631891 0.7292512 0.009080978
000250 08 b3 ee 3c 75 4d c8 3c 18 d3 48 3d 35 bd 52 3c
       0.029138103 0.024450997 0.04902944 0.012862493
000260 e7 05 1d 3d 6f 83 16 3d cf b8 9d 3b 31 42 ca 3c
       0.038335707 0.03674644 0.0048132907 0.024689766
000270 0c f9 c5 3c 3c 93 1a 3d e3 b5 39 3d ac 27 25 3c
       0.024166606 0.03773807 0.045339476 0.010080259
000280 8b e8 33 3d 8b 03 cd 3c 2b 39 c5 3c a8 8f 72 3d
       0.043922942 0.025026103 0.024075111 0.059219033
000290 51 04 09 3d f7 70 06 3d 26 d7 80 3c 44 a3 9e 3c
       0.033451382 0.032822575 0.01572759 0.01936496
0002a0 95 b8 7e 3d 37 74 8a 3d 3f 22 5d 3d fb eb bd 3c
       0.06218775 0.067604475 0.053987738 0.023183813
0002b0 c8 3e ef 3c b0 6c 6c 3d 79 f4 77 3d 62 7f 84 3d
       0.029204741 0.05772084 0.06053588 0.06469609
0002c0 18 4a 84 3d 63 9b 71 3d d3 4d 0d 3d b8 4d 4e 3d
       0.06459445 0.05898608 0.034498047 0.050367087
0002d0 f7 f0 ba 3d cb 5c 1a 3d 41 e0 ba 3d 04 9b a2 3d
       0.09127992 0.03768615 0.09124804 0.07939723
0002e0 59 50 81 3d 8d d7 2b 3d 4a 7e 66 3d 08 72 1f 3d
       0.06314153 0.041953612 0.056272782 0.038927108
0002f0 dd 25 38 3d 38 9b 01 bc 3c 61 8e 3d f4 32 62 3d
       0.044957984 -0.007910542 0.0695214 0.055224374
000300 b7 74 da 3c 04 fa 3b 3d 27 c5 af 3c a6 d6 20 3d
       0.026666982 0.04589273 0.021456314 0.039267205
000310 5d 96 0c be 73 66 37 bf 60 81 59 3e f2 2c ed bd
       -0.13729234 -0.716407 0.21240759 -0.11580838
000320 20 2c 99 bd 6a f0 3c bf 96 a5 9c be 51 6d e3 be
       -0.07479119 -0.7380434 -0.30595082 -0.4441934
000330 cd c8 88 3e 04 dc 09 be 15 db be bc 19 da 25 be
       0.267157 -0.13462836 -0.023297826 -0.16196479
000340 c5 39 23 bf 95 ce 7d 3d 86 84 d2 be 75 8e 8c 3b
       -0.63760024 0.06196459 -0.41116732 0.004289443
000350 c5 82 37 3e 62 2c 0b bf 99 d8 39 bf d8 db b4 be
       0.17920978 -0.543646 -0.72596127 -0.35323977
000360 c2 01 70 3f be 24 f4 3e 6f dd 0d 3f bd 13 2a 3e
       0.9375268 0.47684282 0.55416006 0.16609092
000370 95 2b cf 3d 82 19 d1 3e 70 1c 0b 3f 8c ad 90 3e
       0.101157345 0.40839773 0.5434027 0.28257406
000380 4f 4b b9 3e 9d ad 92 3e 21 3c 00 bf 69 c4 4b 3f
       0.36190268 0.2864808 -0.5009175 0.79596573
000390 4d 5b f4 3e 57 e7 3d 3f 64 e4 a8 3e 61 df 2d 3e
       0.47725907 0.7418112 0.32986748 0.16979744
0003a0 eb 98 ae bd 12 c0 38 bf e9 98 3b bf 92 8b e8 3b
       -0.085252605 -0.72168076 -0.732802 0.007096716
0003b0 0c 28 00 3f 57 75 98 3e e7 1a b6 3e be ea 9b be
       0.50061107 0.29777023 0.355674 -0.30452532
0003c0 04 69 94 bf 3d 76 dc bf 45 bc f3 bf b8 12 3a bf
       -1.1594548 -1.7223583 -1.904183 -0.7268481
0003d0 05 1e c0 be 74 71 45 bd 35 77 67 bd 87 8b 69 bd
       -0.37522903 -0.0482039 -0.05651017 -0.05701783
0003e0 29 e6 69 bd 28 36 c1 3c c1 d4 41 3e 02 94 4a bc
       -0.057104263 0.023585394 0.18928815 -0.012364389
0003f0 2e fa 3d bd 6e 33 52 3d 5f 95 86 bd 22 83 8b bd
       -0.046381168 0.05131858 -0.06571459 -0.06812121

out.bias f4 [10]
000000 98 a1 61 3e bf 1f cf 3f a7 ab 2c bf 95 fe af bd
       0.220343 1.6181563 -0.6744942 -0.085934795
000010 05 ed 04 be 4c f7 07 bd fb 65 06 bf 95 8c 78 3e
       -0.12981041 -0.033194825 -0.5249936 0.24272378
000020 ca 2a 12 3e 2b 01 86 be
       0.14274135 -0.26172766
